petal/data_pipeline/modules/libraries/genus_classifier/archive/cifar_net.pth (torch_old, 249562 bytes, 10 tensors)

conv1.weight f4 [6, 3, 5, 5]
0	0x3ea44b98	0.32088923
1	0x3e956b09	0.29183224
2	0x3ed7b64d	0.42131272
3	0x3ef77002	0.48327643
4	0x3e90d825	0.28289905
5	0x3e9aa75c	0.3020581
6	0x3e3d2583	0.18471341
7	0x3ed63f85	0.41845337
8	0x3e8e5941	0.2780247
9	0x3e946e64	0.2899047
10	0x3e60f2b7	0.21967588
11	0x3d8a6d8c	0.06759176
12	0x3e005881	0.12533762
13	0x3e9db639	0.30803087
14	0x3d9ad395	0.07559887
15	0x3d4d227d	0.05008172
16	0xbdc3fcc4	-0.095696956
17	0xbd24613a	-0.040131785
18	0x3c9bac6c	0.019003116
19	0xbdb68daa	-0.08913739
20	0xbde49139	-0.111605115
21	0xbe4d279c	-0.20034641
22	0xbdcd10e3	-0.100129865
23	0xbe16700a	-0.14691177
24	0xbe297f34	-0.1655243
25	0xbd56df60	-0.05245912
26	0xbd746ba3	-0.059672963
27	0xbe77b8db	-0.2419161
28	0xbea9d227	-0.33168146
29	0xbeb3e14b	-0.35132822
30	0xbe1d1d02	-0.15343097
31	0xbdac26fb	-0.084058724
32	0xbe37e4b5	-0.17958339
33	0xbe4d5136	-0.20050511
34	0xbeb59680	-0.35466385
35	0xbcfa13e1	-0.030527057
36	0xbe013382	-0.12617305
37	0xbc06454a	-0.008195231
38	0xbe65d58c	-0.22444743
39	0xbdda2031	-0.10650671
40	0xbe1957cc	-0.14974898
41	0xbd83dc99	-0.0643856
42	0xbda4c835	-0.08045999
43	0xbe54d702	-0.20785144
44	0xbdf335e1	-0.11875511
45	0x3cbbb075	0.02291129
46	0x3d049f01	0.0323782
47	0xbdb01991	-0.085986264
48	0xbd63e11c	-0.055634603
49	0x3c4a2c5e	0.0123396795
50	0x3dd16a72	0.10225381
51	0xbe08626c	-0.13318795
52	0xbe475e2f	-0.19469522
53	0xbea05ddc	-0.3132161
54	0xbe040b91	-0.12895037
55	0xbc65b29a	-0.014019633
56	0xbd7e7823	-0.06212629
57	0xbe522dcf	-0.20525287
58	0xbe840b34	-0.25789797
59	0xbd9b1063	-0.07571485
60	0x3e200930	0.15628505
61	0x3e0f6c08	0.14006054
62	0xbdfc1c83	-0.12310126
63	0xbe292069	-0.1651627
64	0xb89b1480	-7.3947944e-05
65	0x3e7dc3ac	0.24781674
66	0x3dd15b35	0.102224745
67	0x3d881a6b	0.06645664
68	0x3d19b3cf	0.037524994
69	0xbca12e58	-0.019675419
70	0x3e9fa4df	0.31180474
71	0x3e3598c4	0.17734057
72	0x3e20d2b5	0.15705378
73	0x3d4eb6d2	0.05046732
74	0x3cb97b9f	0.022641955
75	0x3cb721bd	0.022354955
76	0x3d628959	0.055306766
77	0xbe835760	-0.256526
78	0x3cbaa934	0.02278576
79	0x3ef4bce2	0.47800356
80	0x3df23b67	0.11827736
81	0x3ea3a305	0.31960312
82	0xbecf7f8a	-0.40526992
83	0xbedd6d78	-0.4324758
84	0x3ec173be	0.37783617
85	0x3db8058d	0.08985434
86	0x3eaa1d49	0.33225468
87	0xbeac0ec3	-0.33605012
88	0xbeac3ee1	-0.33641723
89	0x3e727c8d	0.23680325
90	0x3e463035	0.19354327
91	0x3def4722	0.116834894
92	0xbe36e984	-0.17862517
93	0xbea97742	-0.330988
94	0xbc51b524	-0.012799535
95	0x3ca2bcfd	0.019865507
96	0x3cf77cf2	0.030210946
97	0x3d1e8c98	0.0387083
98	0x3ce1d924	0.027569361
99	0xbd9a2efd	-0.075284936
100	0xbdf2feda	-0.11865015
101	0x3d9e37fa	0.077255204
102	0xbec680a3	-0.38770017
103	0xbecf5df4	-0.40501368
104	0x3eab9179	0.33509424
105	0x3dd391b6	0.103305265
106	0x3e701ab9	0.23447694
107	0xbede6a5c	-0.4344052
108	0xbefdf5a2	-0.49601465
109	0x3e898540	0.26859474
110	0x3d2ab79d	0.041679014
111	0x3ec36dd9	0.38169745
112	0xbe4c8270	-0.19971633
113	0xbf0c56bc	-0.54819846
114	0x3e0584e6	0.13038978
115	0x3dd18f19	0.10232372
116	0x3df80f9c	0.12112352
117	0xbdd4b662	-0.10386349
118	0xbea55e30	-0.32298422
119	0x3c8004ea	0.015627343
120	0x3d65eff5	0.056137044
121	0x3cff6817	0.031177564
122	0x3ce8c50c	0.028414272
123	0xbe1700cc	-0.14746398
124	0xbc878aed	-0.016545737
125	0x3de656ce	0.112470254
126	0x3cc9c9a7	0.024632288
127	0xbea5f48b	-0.32413134
128	0xbe781cfe	-0.2422981
129	0x3ea158c3	0.31513032
130	0x3e395789	0.18099798
131	0x3e860823	0.26178083
132	0xbedfaa4a	-0.43684608
133	0xbee31144	-0.4434911
134	0x3ea28cf0	0.31748152
135	0x3e90e39e	0.28298658
136	0x3ed79742	0.42107588
137	0xbea598e7	-0.32343218
138	0xbecbbe8e	-0.3979382
139	0x3ddb83b8	0.10718483
140	0x3db13ac8	0.0865379
141	0x3dc67a3d	0.09691284
142	0xbd2b3ee9	-0.041808043
143	0xbe75bbc0	-0.23997402
144	0xbd6aa93b	-0.057290297
145	0x3e563439	0.20918359
146	0x3e183dbd	0.14867301
147	0x3d0b99c5	0.034082193
148	0x3bb170ca	0.005415057
149	0x3de792d7	0.11307304
150	0xbdd98e3a	-0.10622831
151	0xbcd92a43	-0.02650941
152	0xbd87595b	-0.0660884
153	0x3db55baa	0.08855374
154	0xbcdad067	-0.026710702
155	0x3bb7e6f7	0.00561225
156	0xbdd41941	-0.10356379
157	0xbd8553e6	-0.06510143
158	0x3dfe074a	0.12403734
159	0xbe49049f	-0.19630669
160	0x3e14599c	0.14487308
161	0xbe498a99	-0.19681777
162	0xbe813472	-0.25235325
163	0x3e4a8069	0.19775547
164	0xbe1881d6	-0.14893278
165	0x3e692abe	0.22770211
166	0x3dfa4ec5	0.12222055
167	0xbeae08d2	-0.33991104
168	0x3c7c942c	0.015416186
169	0x3e554f69	0.20831074
170	0xbca22bd3	-0.019796288
171	0x3eb8dcaa	0.36105853
172	0xbe0c7148	-0.13715088
173	0xbea8c323	-0.32961378
174	0x3e327a35	0.17429431
175	0x3e2a6301	0.1663933
176	0x3e136ff2	0.14398172
177	0x3d6768ed	0.05649655
178	0x3e712fc1	0.23553373
179	0xbda5bb4e	-0.08092366
180	0x3e3bba3a	0.18332759
181	0x3dc85c62	0.097832456
182	0x3d7307c9	0.059333596
183	0x3e5cb805	0.21554573
184	0x3d0243af	0.03180283
185	0x3e4ce138	0.20007789
186	0xbe3c2422	-0.18373159
187	0xbdf8b915	-0.121446766
188	0x3ebe3675	0.37150922
189	0xbd93cc6f	-0.07216727
190	0x3e1eaddd	0.15496011
191	0x3e4451d3	0.19171838
192	0xbe7bd011	-0.2459109
193	0x3e290789	0.1650678
194	0x3e590306	0.2119256
195	0xbe36a9e2	-0.17838243
196	0x3eb2332b	0.34804663
197	0xbd8922ab	-0.066960655
198	0xbea917ea	-0.33026057
199	0x3dd9a52c	0.10627207
200	0xbd9908cb	-0.0747238
201	0xbde7e6a3	-0.11323287
202	0xbcee7c99	-0.029112147
203	0x3d2d2c04	0.042278305
204	0xbe9793dc	-0.29604995
205	0xbe066880	-0.13125801
206	0xbdf85c15	-0.12126938
207	0xbd72683e	-0.059181444
208	0x3e05d84c	0.13070792
209	0xbe9db5dc	-0.3080281
210	0x3dc4b177	0.09604161
211	0xbe131669	-0.14364018
212	0xbe9407bd	-0.28912154
213	0x3e06782b	0.13131778
214	0xbe29f8a1	-0.1659875
215	0x3e2d01f4	0.16895276
216	0x3e3db268	0.18525088
217	0xbea04b6b	-0.3130754
218	0xbd2e4569	-0.042546663
219	0xbbeb8f72	-0.007188731
220	0xbe982ccf	-0.29721686
221	0x3e9df0ca	0.3084777
222	0xbd5403c2	-0.051761396
223	0xbee7a6f6	-0.4524457
224	0xbdc02e2e	-0.09383808
225	0xbd5509ac	-0.052011177
226	0x3dc09b85	0.09404663
227	0x3e45f6dc	0.1933245
228	0x3cd6859d	0.026186759
229	0xbdddf93e	-0.10838555
230	0x3ed33fe8	0.41259694
231	0x3ec42e4a	0.38316566
232	0x3f304041	0.68848044
233	0x3eb315a9	0.34977463
234	0x3e099460	0.13435507
235	0x3dd5d218	0.10440463
236	0xbe092e72	-0.13396624
237	0xbe594b0d	-0.21220036
238	0xbe2da9a3	-0.16959243
239	0xbd993b24	-0.07481983
240	0xbe5ca0a6	-0.21545658
241	0xbf064c3b	-0.5246007
242	0xbee35935	-0.44403997
243	0xbee59dca	-0.44846946
244	0xbe825468	-0.25455022
245	0x3cc37685	0.023860225
246	0xbe3100ef	-0.17285512
247	0x3cbf9282	0.02338529
248	0x3bdf0ba2	0.0068068067
249	0x3b9d50be	0.004800885
250	0xbe38d2f1	-0.18049218
251	0xbdf20d46	-0.11818938
252	0xbd8b4900	-0.06801033
253	0xbcc583b6	-0.024110656
254	0xbda555d1	-0.08073009
255	0x3e8c3c7a	0.2738989

conv1.bias f4 [6]
0	0xbef33a0a	-0.47505218
1	0xbe087c9a	-0.13328782
2	0xbcea030f	-0.028565912
3	0xbee62c4c	-0.4495567
4	0x3bea842d	0.00715687
5	0x3e8ba8a6	0.27277106

conv2.weight f4 [16, 6, 5, 5]
0	0xbe77f9f4	-0.24216443
1	0xbe69ff19	-0.22851218
2	0xbe7ce895	-0.24698098
3	0xbeb1ea2a	-0.34748966
4	0xbe9cf1f0	-0.30653334
5	0xbdc03660	-0.09385371
6	0xbe07df3a	-0.13268748
7	0xbe694d46	-0.22783384
8	0xbda9ff24	-0.08300617
9	0xbe0f004c	-0.13964957
10	0x3cfae517	0.030626817
11	0x3d08b25f	0.033373233
12	0x3d3dd747	0.046347883
13	0x3b8b98a4	0.0042601395
14	0x3e06697a	0.13126174
15	0x3e1fc828	0.15603697
16	0x3e791093	0.24322729
17	0x3e8b1b07	0.27169058
18	0x3dbe9cf7	0.093072824
19	0x3df51d8f	0.119685285
20	0x3e2a9bab	0.16660945
21	0x3e020e51	0.12700774
22	0x3e5d19ea	0.21591917
23	0x3dfe4a53	0.1241652
24	0x3e323b7b	0.17405502
25	0x3d541568	0.051778227
26	0xbd998d6f	-0.074976794
27	0x3d89b05d	0.06723092
28	0xbd882869	-0.066483326
29	0xbd3f11a0	-0.046647668
30	0x3ddc30c6	0.1075149
31	0xbe1aaf80	-0.1510601
32	0xbd12902e	-0.03578203
33	0xbdb8050b	-0.08985337
34	0x3d8b9cf5	0.068170466
35	0xbb9c5dca	-0.0047719227
36	0xbe5f5a72	-0.21811846
37	0xbc2483f6	-0.010041228
38	0xbd5d8f80	-0.05409193
39	0xbd223236	-0.039598666
40	0xbd5640e1	-0.052307967
41	0xbe618c61	-0.22026207
42	0xbdf26942	-0.118364826
43	0xbd433b1c	-0.047663793
44	0x3ccfc276	0.02536128
45	0xbdf24bf0	-0.1183089
46	0xbe994b7e	-0.29940408
47	0xbe265c54	-0.16246158
48	0xbe0c10d6	-0.13678297
49	0xbdef1f21	-0.11675859
50	0x3cfde368	0.030992225
51	0xbddb1825	-0.106979646
52	0xbd7255ca	-0.059163846
53	0xbb971126	-0.0046101985
54	0xbda489e2	-0.080341116
55	0xbd6af354	-0.057360962
56	0x3d02aaa5	0.03190102
57	0x3cd83293	0.026391303
58	0x3d03353a	0.032033183
59	0xba73a0d2	-0.00092936784
60	0xbd5e1d13	-0.054226946
61	0x3c8ca3aa	0.017167885
62	0x3a08ecf4	0.0005223297
63	0x3d8f08c2	0.06984092
64	0x3d3646de	0.044501178
65	0xbd0e6563	-0.03476466
66	0x3d2aad19	0.041668985
67	0x3db66b6e	0.08907209
68	0x3d4ab603	0.049489986
69	0x3dd1fa60	0.10252833
70	0xbe1d5c27	-0.15367185
71	0xbde36e4d	-0.111050226
72	0xbc5d533d	-0.013508615
73	0xbb7827f8	-0.003786562
74	0x3d135145	0.035966177
75	0x3de49665	0.11161498
76	0xbcd21246	-0.02564348
77	0x3cb777b3	0.022395944
78	0xbb21c1e3	-0.0024682216
79	0x3d50486c	0.050850317
80	0x3cb7023e	0.022339936
81	0x3df7c2a2	0.1209767
82	0x3dcd8308	0.10034758
83	0x3e2ac43d	0.16676421
84	0x3de1427d	0.1099901
85	0x3bda08dc	0.006653888
86	0xbbe1cf91	-0.006891199
87	0xbd578aea	-0.052622713
88	0xbcc63736	-0.024196249
89	0x3d9cf100	0.076631546
90	0xbdbe4f91	-0.0929252
91	0xbdd46b98	-0.103720844
92	0x3d92e199	0.071719356
93	0x3bad2300	0.0052837133
94	0x3c16f576	0.009213796
95	0x3d85f663	0.06541135
96	0x3d9ed15f	0.07754778
97	0x3e06b26a	0.13153997
98	0x3d65a7d2	0.05606825
99	0x3d5fcaf6	0.054636918
100	0xbe29a026	-0.16564998
101	0xbe13b195	-0.14423211
102	0xbdd2c355	-0.10291163
103	0xbe12099e	-0.14261481
104	0xbdc9cfa8	-0.098540604
105	0xbe155c8e	-0.14586088
106	0xbd9027b5	-0.070388235
107	0xbdeeef9c	-0.116667956
108	0xbddc1540	-0.107462406
109	0xbdf98223	-0.12183025
110	0xbd2e8a2f	-0.04261225
111	0xbc502c87	-0.012705929
112	0xbde97b11	-0.11400426
113	0xbd97b980	-0.07408428
114	0x3d61f868	0.05516854
115	0x3dd9ca19	0.1063425
116	0x3dee529a	0.11636849
117	0x3e092b36	0.1339539
118	0x3b47ccac	0.0030486984
119	0x3dab455c	0.083628386
120	0x3e35dbf9	0.17759694
121	0x3df81ddb	0.121150695
122	0x3dc90759	0.098158546
123	0x3e62a2f9	0.22132482
124	0x3df75532	0.120767966
125	0x3cd71a6b	0.026257714
126	0x3d44dfa7	0.048064854
127	0x3df63395	0.12021557
128	0x3cd3a2ae	0.025834408
129	0x3d07b5a9	0.03313223
130	0x3c21279a	0.009836102
131	0x3baa959e	0.005205824
132	0x3d4e2b5b	0.050334316
133	0x3d936d68	0.07198602
134	0x3da0ddfb	0.078548394
135	0xbd418520	-0.0472461
136	0xbc70b812	-0.014692323
137	0xbcb8630f	-0.022508172
138	0x3cb08d87	0.02155186
139	0x3b360772	0.0027775434
140	0xbd55f356	-0.052234016
141	0x3d050925	0.032479424
142	0xbdac2766	-0.08405952
143	0x3d063fc4	0.032775655
144	0xbde099bc	-0.109668225
145	0x3dbfba3f	0.093616955
146	0x3d96b703	0.073591255
147	0xbda84ecb	-0.082181536
148	0xbdc5b1a3	-0.09653022
149	0xbd258588	-0.04041055
150	0xbd0af078	-0.033920735
151	0xbde702ad	-0.11279807
152	0xbd8434da	-0.06455393
153	0x39518deb	0.00019984662
154	0xbdd5ccf3	-0.104394816
155	0xbc9def89	-0.019279258
156	0xbd942f72	-0.07235612
157	0x3c0c5468	0.008565046
158	0x3d9db0dc	0.07699749
159	0xbcf63cef	-0.030058352
160	0x3d3a6d20	0.045514226
161	0xbbf265e8	-0.007397402
162	0x3a607039	0.00085616444
163	0xbd473e9d	-0.048643697
164	0xbdc5a90c	-0.09651384
165	0x3d8abbce	0.06774102
166	0xbd98cdd0	-0.074611306
167	0xbd279488	-0.040913135
168	0xbd9f5631	-0.077801116
169	0xbde69a7d	-0.11259935
170	0xbd789c26	-0.06069579
171	0xbd3f8ae4	-0.046763316
172	0xbc2db0fd	-0.010601279
173	0xbce6f218	-0.028191611
174	0xbd1f620c	-0.038911864
175	0x3c329704	0.010900263
176	0xbd78fe82	-0.060789593
177	0xbdfca63b	-0.123363934
178	0xbd31dfd7	-0.04342636
179	0x3d3168a8	0.0433127
180	0xbcca098c	-0.024662755
181	0xbd365b95	-0.044520933
182	0xbd91bcda	-0.07116099
183	0xbc482e5c	-0.012218084
184	0x3cd4d040	0.025978208
185	0x3c64476b	0.013933043
186	0x3c5cba23	0.013472113
187	0xbca73f29	-0.02041586
188	0xbccadb86	-0.02476288
189	0xbdd8ca9e	-0.10585521
190	0x3cfd4b41	0.030919673
191	0xbccc4095	-0.024933139
192	0xbe1e1258	-0.15436685
193	0xbd48b86e	-0.04900401
194	0xbde6e14b	-0.1127344
195	0xbe3e8720	-0.18606234
196	0xbe5e4fa0	-0.21710062
197	0xbe1ec253	-0.15503816
198	0xbd8485b6	-0.06470816
199	0xbde35e99	-0.111020274
200	0xbc95de62	-0.018294517
201	0x3d02eb14	0.03196247
202	0xbd0d7ad3	-0.034540962
203	0x3d9b9f73	0.07598772
204	0x3d9cc84d	0.07655392
205	0x3d4b64a4	0.049656525
206	0x3dd3764a	0.10325296
207	0x3daf4771	0.08558548
208	0xbc61e9b6	-0.013788631
209	0x3c73f9f8	0.01489114
210	0x3cddb1a9	0.027062254
211	0xbd0af8d7	-0.03392872
212	0xbbb658c6	-0.005564782
213	0xbd3103ff	-0.0432167
214	0xbd4489ba	-0.04798291
215	0x3d50b12b	0.05095021
216	0xbdb400b3	-0.08789196
217	0xbd9df268	-0.07712251
218	0xbe14852f	-0.1450393
219	0xbd325613	-0.043539118
220	0xbe14bd65	-0.14525373
221	0xbd8b5d9e	-0.068049654
222	0xbcc329df	-0.023823677
223	0xbde4fbba	-0.111808255
224	0xbde5e070	-0.11224449
225	0xbd86e61f	-0.06586861
226	0xbdb9a6e8	-0.09065038
227	0xbde558a6	-0.11198549
228	0x3c9a6753	0.018848097
229	0x3cdcfd98	0.026976392
230	0xbd6b584b	-0.05745725
231	0xbccf9cd2	-0.025343332
232	0xbd121830	-0.0356676
233	0x3db6041c	0.088875026
234	0x3d2e3a03	0.042535793
235	0x3d073a73	0.033014726
236	0x3d2edf4f	0.042693432
237	0x3cbfa2c3	0.02339304
238	0x3c8d5ef9	0.0172572
239	0xbd9c928f	-0.07645141
240	0x3e51ed50	0.20500684
241	0x3d8749a6	0.06605844
242	0x3d3a498c	0.045480296
243	0x3db08414	0.08618942
244	0x3bca63b7	0.0061764377
245	0xbc5c02c1	-0.013428391
246	0x3d33f850	0.04393798
247	0x3bcbcce7	0.0062194946
248	0x3d2197ab	0.039451282
249	0xbbdcf807	-0.0067434344
250	0xbdbebd6d	-0.09313474
251	0x3d139cb5	0.03603812
252	0x3beeb061	0.0072842096
253	0x3e1b72c2	0.15180495
254	0x3e30484d	0.1721508
255	0x3d4ab3bc	0.049487814

conv2.bias f4 [16]
0	0x3e858a1f	0.2608194
1	0x3d7dd36d	0.06196921
2	0x3edfb5fe	0.43693537
3	0x3df5fc16	0.12010972
4	0xbd63296f	-0.055459436
5	0xbe47d615	-0.1951526
6	0xbdbd6df7	-0.0924949
7	0x3c15a679	0.009133928
8	0x3e1fe99b	0.15616457
9	0x3e1f1d93	0.15538625
10	0x3e80baeb	0.25142607
11	0xbef34d45	-0.4751989
12	0xbf734f6d	-0.9504307
13	0x3f08ec9c	0.5348604
14	0x3e445784	0.1917401
15	0x3f7115b7	0.9417376

fc1.weight f4 [120, 400]
0	0x3d9509af	0.072772376
1	0x3d943776	0.07237141
2	0x3b046ed8	0.002020767
3	0x3d48a77d	0.048987854
4	0x3d56dc75	0.052456338
5	0xbd41344b	-0.04716901
6	0xbd384cf5	-0.044995267
7	0x3c563579	0.013074272
8	0x3aa209cc	0.0012362539
9	0x3d894d61	0.06704212
10	0x3b9cbbe7	0.004783142
11	0x3cee2ffc	0.029075615
12	0xbd04636f	-0.03232139
13	0x3b8d26a5	0.0043075853
14	0x3d4e9bbd	0.050441492
15	0xbb15a98a	-0.002283665
16	0x3d17d0f8	0.037064523
17	0x3c70ce48	0.014697619
18	0xbcec1c5d	-0.028822118
19	0x3d689744	0.056784883
20	0x3d0667b9	0.03281376
21	0xbbb373bc	-0.005476443
22	0x3d305443	0.04304911
23	0xbbf4ef32	-0.0074748034
24	0x3cab56e1	0.02091545
25	0x3c83ca50	0.016087681
26	0x3caeae5c	0.021323375
27	0xbc943318	-0.01809077
28	0xbcff9871	-0.03120062
29	0x3cded562	0.027201358
30	0xbd1254e4	-0.03572549
31	0xbdaf8a9c	-0.085713595
32	0xbd4c52f6	-0.049883805
33	0xbd934d7f	-0.071925156
34	0xbd23ae06	-0.039960884
35	0xbc5e93be	-0.013585029
36	0xbd47c37b	-0.04877041
37	0x3cfbcc83	0.030737167
38	0xbd720b84	-0.059093013
39	0x3d87d83e	0.06633042
40	0x3d09d8e6	0.033654116
41	0xbc58c7d0	-0.013231233
42	0x3d810a07	0.06300741
43	0x3d51f63f	0.05126023
44	0x3c9d8b5f	0.019231496
45	0x3c57dfa5	0.01317588
46	0x3cd12f58	0.02553527
47	0x3c86b7a7	0.016444994
48	0xbceef32b	-0.029168686
49	0x3d121ec2	0.035673864
50	0xbca24643	-0.019808894
51	0x3ca2131b	0.0197845
52	0x3d1fb5b2	0.038991638
53	0x3d21d571	0.039510194
54	0x3d6b6e0d	0.057478
55	0x3c001071	0.00781642
56	0x3d188ca6	0.037243508
57	0x3d273e08	0.040830642
58	0xbcb4642b	-0.02202042
59	0xbd0f4578	-0.03497836
60	0x3c9073e5	0.017633388
61	0x3d714045	0.058899183
62	0xbd6b12da	-0.057391025
63	0x3ce3a64c	0.027789257
64	0xbcacc803	-0.021091467
65	0x3ca07a36	0.019589525
66	0x3d40570f	0.046958026
67	0xbcd55ff5	-0.026046732
68	0xbd881c6b	-0.06646045
69	0xbb374527	-0.0027964802
70	0xbd9d6140	-0.076845646
71	0x3cdffeb0	0.027343124
72	0xbd8dc489	-0.06922252
73	0xbd191030	-0.037368953
74	0x3c55963e	0.013036309
75	0x3d1c81f2	0.038209863
76	0xbd1ee97c	-0.038796887
77	0x3d4828d1	0.04886705
78	0xbcd4386c	-0.02590581
79	0xbcbb4c5d	-0.022863561
80	0xbd6c5b45	-0.05770423
81	0xbb62ef1f	-0.003462739
82	0xbbd5cf53	-0.006524959
83	0x3cdb5100	0.026772022
84	0x3d0e6655	0.03476556
85	0x3c6fb631	0.01463084
86	0x3d341ae4	0.043970957
87	0x3cb0903d	0.021553153
88	0xbcd71d4b	-0.026259085
89	0x3d3c1ba5	0.0459248
90	0x3d2b3d09	0.041806255
91	0x3d224a24	0.039621487
92	0x3c7e23d0	0.015511468
93	0xbb9b7f79	-0.0047454205
94	0xbc2a8489	-0.010407575
95	0x3cee7c9b	0.02911215
96	0xbd1582b8	-0.036501616
97	0x3cb0d6f7	0.021586878
98	0xbcd05dad	-0.025435293
99	0x3ce9c5f8	0.028536782
100	0x3b629cdd	0.003457836
101	0x3cdc21ac	0.026871525
102	0xbd36f2ce	-0.04466515
103	0xbc21de86	-0.009879714
104	0xbd01c1ac	-0.03167884
105	0xbd4f28e6	-0.050576113
106	0x3c7a545d	0.015278903
107	0x3ca3f3ab	0.02001365
108	0xbd528980	-0.05140066
109	0x3c63d57c	0.013905879
110	0xbdb7d177	-0.08975499
111	0xbd3136e2	-0.04326523
112	0xbc7f0c98	-0.015566967
113	0xbc7cb1f5	-0.015423288
114	0xbc1fa082	-0.009742858
115	0x3ccbf149	0.024895327
116	0xbb807ee2	-0.0039213756
117	0x3d5128ab	0.051064175
118	0x3cf4dc34	0.029890157
119	0x3bc973e4	0.0061478484
120	0xbd03f839	-0.032219145
121	0x3d3bd64a	0.04585866
122	0x3dabcfbc	0.083892316
123	0x3d51f3ea	0.051258005
124	0xbc8d165e	-0.01722258
125	0x3b2da90f	0.0026498472
126	0x3d9d71bd	0.076877095
127	0xbca450d2	-0.02005807
128	0xbd077462	-0.033069976
129	0xbd532010	-0.05154425
130	0xbc6fc5e0	-0.014634579
131	0x3dbbb16b	0.09164699
132	0x3d604ed7	0.054762688
133	0x3db43344	0.08798841
134	0x3d630f50	0.055434525
135	0xbd1182f6	-0.035525285
136	0x3d79baef	0.06096929
137	0xbb9fcd52	-0.004876771
138	0x3ce4603a	0.027877916
139	0xbc91c50d	-0.017794156
140	0xbd9af4d6	-0.0756623
141	0xbcff74ea	-0.031183679
142	0xbc8146d2	-0.01578084
143	0xbb9ff912	-0.0048819864
144	0x3bae5fa2	0.005321459
145	0xbc7c2b70	-0.015391216
146	0x3c11d1d9	0.008900129
147	0xbd0cc121	-0.03436387
148	0xbd65ddca	-0.056119718
149	0xbc11a31e	-0.008888988
150	0xbd379d92	-0.044828005
151	0xbc53c64e	-0.0129256975
152	0xbd65d6ac	-0.05611293
153	0x3c1fb9a5	0.009748851
154	0xbbb41eca	-0.0054968344
155	0x3c7d2c7e	0.015452502
156	0xbb253e1c	-0.0025214022
157	0x3d0f985a	0.035057403
158	0x3c53fe5d	0.012939063
159	0xbcfc419b	-0.030793002
160	0xbd38eb06	-0.04514601
161	0x3d015c31	0.03158206
162	0x3cb72e96	0.022361081
163	0xbd2c6565	-0.042088885
164	0xbcce182a	-0.025158007
165	0x3ae19c0d	0.0017212644
166	0x3d376aa5	0.04477944
167	0xbcb9fc3d	-0.022703284
168	0x3b6fcf61	0.0036592113
169	0xbd2e06df	-0.04248702
170	0x39dedecd	0.0004250914
171	0xbc09e91f	-0.008417397
172	0xbad1dd2c	-0.0016011349
173	0x3b06bd77	0.0020559707
174	0xbd2a453b	-0.04156993
175	0xbc77a0d0	-0.015114024
176	0xbd2776c5	-0.04088475
177	0xbd80f97a	-0.06297584
178	0xbcfcbce1	-0.030851783
179	0xbdc719ed	-0.09721742
180	0xbda9cd4d	-0.08291111
181	0x3c5e60db	0.013572897
182	0xbce0de6e	-0.027449813
183	0xbbf2f8b1	-0.0074149
184	0x3cd62644	0.026141293
185	0xbdbe7e8f	-0.09301483
186	0xbc98a876	-0.018635016
187	0xbce9e563	-0.028551763
188	0xbd339e92	-0.043852396
189	0xbbc2d83a	-0.0059461864
190	0xbdcadcb6	-0.099053785
191	0xbc7a6987	-0.015283949
192	0xbdd74bae	-0.10512482
193	0x3c95a64f	0.018267779
194	0x3d150ded	0.036390234
195	0x3cccbf8e	0.024993684
196	0x3d057102	0.032578476
197	0xbd0aaa28	-0.03385368
198	0x3c10acc7	0.008830256
199	0x3d1bcfaf	0.03803986
200	0xbc8acc0b	-0.016942998
201	0x3cea7a5c	0.028622799
202	0x3d2feea1	0.042952184
203	0xbca92140	-0.020645738
204	0x3d8e8369	0.06958658
205	0x3d6fa5ee	0.058507852
206	0x3c117b42	0.008879485
207	0xbc26a303	-0.010170701
208	0xbc048916	-0.008089324
209	0x3b538d06	0.0032280101
210	0x3d9efd18	0.077631176
211	0xbd69a898	-0.05704555
212	0xbd4ad757	-0.04952177
213	0xba655ab8	-0.0008749175
214	0x3d39d7d1	0.045371834
215	0xbbe39649	-0.0069454056
216	0xbcdab15e	-0.026695903
217	0x3d8038c2	0.06260826
218	0x3d3e0b7c	0.04639767
219	0x3d485af3	0.04891486
220	0xbc85a866	-0.01631565
221	0x3b32b590	0.0027268864
222	0x3da6f20d	0.08151636
223	0x3d742be1	0.05961216
224	0x3cc47c56	0.02398507
225	0x3c56bc6e	0.013106449
226	0xbc568b8f	-0.013094797
227	0xbca35a4f	-0.019940523
228	0xbb30633a	-0.0026914612
229	0xbd987cf2	-0.074457064
230	0xbcecef90	-0.028922826
231	0xbcb01407	-0.021493925
232	0xbb06fb92	-0.0020596725
233	0x3c77d255	0.015125831
234	0xbca90886	-0.020633947
235	0x3d2fb756	0.042899452
236	0x3c3123e0	0.010811776
237	0xbc6301ca	-0.013855407
238	0xbc49b84f	-0.012312009
239	0x3d1a2869	0.037636194
240	0xbcdd0322	-0.026979033
241	0xbcd7f678	-0.026362643
242	0xbcf8c757	-0.03036849
243	0x3d98c3d3	0.074592255
244	0xbd282105	-0.041047115
245	0x3d25f2aa	0.040514626
246	0xbb963a0f	-0.004584558
247	0xbc49f237	-0.012325815
248	0x3c4b0af5	0.012392749
249	0x3d9a877f	0.07545375
250	0x3ddef96a	0.10887416
251	0x3dbe7775	0.09300128
252	0x3d8627e5	0.06550578
253	0x3cac0753	0.020999586
254	0x3df5d5a3	0.120036386
255	0xbc2619c9	-0.010137984

fc1.bias f4 [120]
0	0xbcc9e570	-0.024645537
1	0xbc33c632	-0.010972546
2	0xbe320fd9	-0.17388858
3	0x3ca4b1df	0.020104347
4	0x3e58a1d8	0.21155488
5	0x3e160842	0.14651588
6	0xbdbf6c48	-0.09346825
7	0xbd02982b	-0.0318834
8	0xbcf517ae	-0.029918518
9	0x3dad091d	0.08449004
10	0xbd866a0f	-0.06563198
11	0x3c3329b6	0.010935238
12	0xbbb7f4b6	-0.0056138886
13	0x3c3224d5	0.010873039
14	0xbdeff199	-0.11716003
15	0xbd5da664	-0.05411376
16	0xbdbcb9aa	-0.092151
17	0x3e398b2b	0.18119495
18	0x3cfe7888	0.031063333
19	0x3e6d1c84	0.23155409
20	0x3c65ddaa	0.0140299
21	0x3d962781	0.073317535
22	0x3d8b9448	0.06815392
23	0x3d0fe30a	0.03512863
24	0xbd96b908	-0.07359511
25	0xb97be6e3	-0.00024023237
26	0xbcef3659	-0.02920072
27	0xbbf34a1f	-0.0074246074
28	0xbd1aca0f	-0.037790354
29	0xbd5e99d8	-0.054345936
30	0x3d914877	0.070939
31	0xbd4121b8	-0.047151297
32	0x3ddfd302	0.109289184
33	0x3da585b0	0.080821395
34	0x3cb02fb3	0.02150712
35	0x3ccc81e3	0.024964279
36	0x3c1bd77a	0.009511823
37	0x3e7fbb58	0.2497381
38	0xbe0e1704	-0.13875967
39	0xbb3cc145	-0.002880172
40	0x3cb8bba6	0.022550415
41	0x3b110a49	0.0022131375
42	0x3cece52c	0.028917871
43	0xbc032bbe	-0.008006034
44	0xbd1bdf27	-0.03805461
45	0x3d866e1b	0.0656397
46	0x3da1c334	0.0789856
47	0x3df16f21	0.11788774
48	0x3c9bbc26	0.019010615
49	0xbd5fa56d	-0.05460112
50	0xbbeea3cd	-0.00728271
51	0xbd7c9b14	-0.06167133
52	0xbcea71ab	-0.028618654
53	0xbd0469ab	-0.032327335
54	0x3e1e0bc1	0.15434171
55	0x3d8fc826	0.07020597
56	0x3e0379e4	0.12839466
57	0x3dc5f5c0	0.09666014
58	0xbc836781	-0.016040565
59	0xbd21a26f	-0.03946155
60	0x3e320956	0.17386374
61	0x3c9e646e	0.019334998
62	0xbd24815c	-0.04016243
63	0x3d2008b9	0.03907082
64	0xbd8962a8	-0.0670827
65	0xbcd726f0	-0.026263684
66	0xbd045be3	-0.032314193
67	0x3c556337	0.013024143
68	0xbd129ea2	-0.035795815
69	0xbc845a35	-0.016156295
70	0x3d425e68	0.047453314
71	0x3ddc1e88	0.10748011
72	0x3c5e546b	0.0135699315
73	0x3d1657a4	0.036704674
74	0xbd39fb29	-0.04540554
75	0x3cbc89c4	0.02301491
76	0x3c2b4c45	0.010455196
77	0xbe11828c	-0.14209956
78	0x3b59275a	0.0033135028
79	0x3ca6991a	0.020336676
80	0xbd65d0d6	-0.056107365
81	0x3d201373	0.03908105
82	0xbd9ae17c	-0.07562539
83	0x3cfc405d	0.03079241
84	0xbdb7604a	-0.089539126
85	0xbcede4e2	-0.029039804
86	0xbc0d0fea	-0.008609751
87	0x3d04d8dc	0.032433376
88	0x3b23a408	0.0024969596
89	0xbe098d1e	-0.13432738
90	0x3b0765d4	0.002066006
91	0xbcdd39fc	-0.027005188
92	0x3cf76618	0.03020005
93	0x3db4c7ac	0.08827147
94	0x3da91b60	0.082571745
95	0xbbba6170	-0.005687885
96	0xbc419167	-0.011814452
97	0x3e70f9a2	0.23532727
98	0xbe462171	-0.19348694
99	0xbd458832	-0.04822559
100	0x3e0b8a4f	0.1362698
101	0x3df1b10c	0.11801347
102	0x3d2b6f59	0.041854236
103	0xbdad7db1	-0.08471239
104	0xbda77332	-0.08176269
105	0x3c444449	0.011979171
106	0x3e1b72fa	0.15180579
107	0x3bb949a3	0.00565453
108	0xbc8e2c21	-0.017355027
109	0x3e121fdd	0.14269967
110	0xbbbaeb43	-0.005704315
111	0x3ca072c8	0.019585982
112	0x3d0ef89d	0.034905065
113	0x3e11be84	0.14232832
114	0xbd4c01d8	-0.049806446
115	0xbd0c9c27	-0.034328606
116	0x3c70a5f1	0.014688001
117	0x3e1d0aab	0.15336101
118	0x3d6a0b8c	0.05713992
119	0x3dc851a1	0.097811945

fc2.weight f4 [84, 120]
0	0x3ccc7bf5	0.024961451
1	0x3d14afc6	0.036300443
2	0x3de9f568	0.11423761
3	0x3d2a8a4a	0.04163579
4	0xbd0e5728	-0.034751087
5	0xbd886557	-0.06659954
6	0xbdb88540	-0.090097904
7	0x3d623621	0.055227403
8	0x3caef3b9	0.02135645
9	0xbc8651a4	-0.016396351
10	0xbcb5ef43	-0.022208815
11	0xbd503f74	-0.050841764
12	0xbd88d241	-0.06680728
13	0xbca0ad7e	-0.019613978
14	0xbd35819c	-0.04431306
15	0xbdc55d7b	-0.096369706
16	0xbdd42244	-0.10358098
17	0x3d8864a9	0.066598244
18	0xbe1f0506	-0.1552926
19	0x3d3d179d	0.046165098
20	0x3d7e8f79	0.062148545
21	0xbdc4fd0d	-0.09618578
22	0xbdafe3f2	-0.08588399
23	0x3ca367ba	0.019946922
24	0x3db1cf0c	0.08682069
25	0xbd926e3a	-0.0714993
26	0x3bf0bc5a	0.007346672
27	0xbe011467	-0.12605439
28	0x3d065e6d	0.032804895
29	0x3d35ca50	0.044382393
30	0xbcb1c14e	-0.02169862
31	0x3cc5907c	0.024116747
32	0x3d8bfcf6	0.06835358
33	0xbd46467e	-0.04840707
34	0xbd320a67	-0.04346695
35	0x3d1df64c	0.038564965
36	0x3e0817a6	0.13290271
37	0xbc185ed1	-0.00929995
38	0xbe184d32	-0.14873198
39	0x3d2a7248	0.041612893
40	0x3dbea772	0.093092814
41	0x3d60b079	0.054855797
42	0x3dedfd76	0.116206095
43	0x3d18b733	0.037284087
44	0x3d4f5392	0.05061681
45	0x3d11cbd7	0.035594787
46	0xbd36acf5	-0.04459854
47	0x3d3802dd	0.044924606
48	0xbdedcbc6	-0.11611132
49	0x3c562ee0	0.013072699
50	0xbdcaede8	-0.09908658
51	0x3c07b336	0.008282473
52	0xbc249fcb	-0.010047863
53	0x3c1de408	0.009636886
54	0x3d98c1d6	0.07458846
55	0xbde0f1f4	-0.10983649
56	0xbdb0ae9f	-0.08627056
57	0x3cbdefd1	0.023185642
58	0x3d08b89c	0.033379182
59	0x3d6a89cf	0.05726033
60	0x3b988cef	0.0046554725
61	0xbd10dd67	-0.035367396
62	0x3d91baca	0.07115705
63	0xbd786285	-0.06064083
64	0xbdf761f9	-0.12079234
65	0x3d8e65cb	0.06953009
66	0x3ba72bcd	0.005101657
67	0x3de97d60	0.114008665
68	0x3da3371e	0.07969497
69	0xbd4ab345	-0.04948737
70	0xbdd3b468	-0.10337144
71	0x3d31f318	0.043444723
72	0xbd44aeca	-0.048018254
73	0x3b8019e7	0.003909338
74	0x3d6c477b	0.057685357
75	0x3dac996d	0.08427701
76	0xbd17be57	-0.037046757
77	0x3dab85c1	0.08375121
78	0xbcd8d357	-0.026467962
79	0xbe006254	-0.12537509
80	0xbde56899	-0.11201591
81	0x3e25a02b	0.1617438
82	0xbd2e3eb3	-0.042540263
83	0xbd5e9f40	-0.05435109
84	0x3e3f0f71	0.18658234
85	0xba8198e0	-0.0009887479
86	0xbdb99676	-0.09061901
87	0x3d2bce0f	0.04194456
88	0x3cad3b66	0.021146487
89	0xbbeb233b	-0.0071758307
90	0xbc5e177c	-0.013555404
91	0x3e1bab42	0.15202048
92	0xbdc04b73	-0.09389391
93	0xbc92d2a6	-0.01792271
94	0x3bf686ec	0.007523408
95	0xbd5664a2	-0.052342065
96	0xbd89238a	-0.06696232
97	0xbd38bfb6	-0.045104705
98	0x3d735ddc	0.059415683
99	0x3b296c54	0.0025851922
100	0x3ca1ed02	0.019766334
101	0xbcb1eec6	-0.021720301
102	0x3cda8d50	0.026678711
103	0xbdf8a648	-0.12141091
104	0x3d642e31	0.055708114
105	0x3d8b1c6f	0.06792533
106	0x3d924020	0.07141137
107	0xbcba480a	-0.022739429
108	0x3bd6851e	0.0065466305
109	0xbe199efa	-0.15002051
110	0xbd8ba43a	-0.06818433
111	0xbe02502f	-0.127259
112	0xbc1530ae	-0.009105844
113	0x3ce9bc33	0.028532123
114	0x3c9d851e	0.019228514
115	0x3d7e1413	0.062030863
116	0x3da9baff	0.0828762
117	0x3e1b4774	0.15163976
118	0x3de0fc59	0.109856315
119	0x3beb86c4	0.007187696
120	0x3d435850	0.047691643
121	0xbde0482b	-0.10951265
122	0xbcc3e641	-0.023913505
123	0x3d64659d	0.05576097
124	0xbc334f4d	-0.0109442
125	0xbdac346c	-0.08408436
126	0x3e1142ca	0.14185634
127	0xbd832451	-0.06403411
128	0x3d2d99e9	0.04238311
129	0x3d4ef43c	0.05052589
130	0x3d86dc36	0.06584971
131	0x3d203268	0.03911057
132	0x3d78743a	0.060657717
133	0xbccd088f	-0.025028495
134	0xbd13fbb6	-0.036128722
135	0x3df9ab51	0.12190879
136	0x3db1ab3b	0.08675238
137	0xbcd9f214	-0.02660469
138	0xbdf69f55	-0.12042109
139	0x3d42b311	0.047534052
140	0x3d6eed9d	0.058332074
141	0xbd9ccd1f	-0.07656311
142	0x3de47718	0.11155528
143	0x3d4d8ec2	0.050184973
144	0xbdf5eb5c	-0.12007782
145	0x3d66168d	0.05617385
146	0x3d84b8f2	0.06480588
147	0x3d8593fa	0.06522365
148	0x3da87d88	0.08227068
149	0x3da8e65d	0.08247063
150	0x3c72f2b0	0.014828369
151	0x3bc6df8f	0.0060691307
152	0xbd41f449	-0.04735211
153	0x3dadf163	0.084933065
154	0xb9f3749b	-0.0004643545
155	0x3d66a5d8	0.056310505
156	0xbdc68ee4	-0.09695223
157	0x3d5f5675	0.05452581
158	0x3e1d6df3	0.15373974
159	0x3ce80f12	0.028327499
160	0x3db3f57f	0.08787059
161	0xbd648d55	-0.055798847
162	0xbdbb34ec	-0.091409534
163	0xbce3cd29	-0.027807789
164	0xbd044169	-0.032288942
165	0x3c2121c8	0.009834714
166	0xbcca9f43	-0.024734145
167	0xbd0e814e	-0.034791283
168	0x3dd44420	0.10364556
169	0x3da20971	0.07911957
170	0xbd4d3659	-0.050100658
171	0x3daf6673	0.085644625
172	0xbcd3af25	-0.025840351
173	0xbdb116d7	-0.086469345
174	0xbdf927bd	-0.121657826
175	0xbc872042	-0.016494874
176	0xbd9f7152	-0.07785286
177	0x3cbbfc99	0.022947596
178	0xbd56fbd5	-0.05248626
179	0x3d265f3b	0.040618163
180	0xbe2f077e	-0.17092702
181	0x3e19b501	0.15010454
182	0xbd98390d	-0.074327566
183	0xbb467416	-0.0030281595
184	0xbd34ea6f	-0.044168886
185	0xbc378d38	-0.011203103
186	0x3d9c13f6	0.07620995
187	0x3db9dc56	0.09075229
188	0xbe047c99	-0.12938155
189	0xbd9bf14a	-0.076143816
190	0xbca3c6fa	-0.01999234
191	0xbdf00043	-0.117188
192	0xbd36139a	-0.044452287
193	0x3a21c0ef	0.0006170412
194	0xbd2083d1	-0.03918821
195	0xbd9a02a1	-0.07520033
196	0x3d8341d7	0.06409042
197	0x3e473404	0.19453436
198	0xbdd79d2c	-0.10528025
199	0x3c5e755d	0.013577786
200	0x3e0f87ce	0.14016649
201	0xbdf001e8	-0.117191136
202	0xbca39fff	-0.019973753
203	0xbace9f88	-0.0015764097
204	0x3d87494e	0.06605779
205	0x3c924bb8	0.017858371
206	0xbda1a9a2	-0.07893683
207	0xbc542748	-0.0129488185
208	0x3d2f9753	0.042868923
209	0x3de3fc7e	0.111321434
210	0x3e69c2be	0.22828194
211	0xbda03efc	-0.07824513
212	0xbd28fd01	-0.04125691
213	0x3ddae181	0.10687543
214	0xbdfd7178	-0.12375158
215	0x3ca0c8ad	0.01962694
216	0xbdac6d5c	-0.08419296
217	0xbd81d1c0	-0.06338835
218	0x3db23897	0.087022
219	0x3d13ace4	0.036053553
220	0x3e2432e6	0.16035041
221	0x3d042a65	0.032266993
222	0x3d88f351	0.06687034
223	0xbd3b4264	-0.045717612
224	0xbd92865d	-0.07154534
225	0xbd9cfa22	-0.076648965
226	0xbc69de46	-0.0142741855
227	0x3d9e40ea	0.07727225
228	0x3dc81b81	0.09770871
229	0xbc28d062	-0.010303589
230	0x3c7c1c2a	0.015387574
231	0x3c1c6703	0.009546044
232	0x3e12fb60	0.14353704
233	0x3ddb02d1	0.106938966
234	0xbd5d2235	-0.0539877
235	0x3d8cf788	0.0688315
236	0xbd4ea4ee	-0.050450258
237	0xbe0915fa	-0.1338729
238	0xbd9db693	-0.07700839
239	0x3d7cb410	0.06169516
240	0xbb8bd06c	-0.004266789
241	0xbad48d62	-0.0016216452
242	0x3d6d4d63	0.05793513
243	0x3d548bbd	0.051891077
244	0xbdcb90e2	-0.099397436
245	0xbd1decad	-0.03855579
246	0x3d5a8b7f	0.05335569
247	0x3d90c049	0.070679255
248	0xbc843b9d	-0.016141707
249	0xbd48be38	-0.04900953
250	0xbdf69a9a	-0.12041207
251	0xbd12c455	-0.035831768
252	0x3da31815	0.07963578
253	0x3d85e037	0.06536906
254	0xbe025fb2	-0.12731817
255	0x3d1a7b7f	0.03771543

fc2.bias f4 [84]
0	0x3d884e41	0.06655551
1	0xbdd198f8	-0.102342546
2	0x3d85831e	0.06519149
3	0x3cadafae	0.021201935
4	0xbdb7d315	-0.089758076
5	0x3df4039f	0.11914753
6	0x3e04d3b5	0.12971385
7	0x3b849b20	0.0040468127
8	0x3dc01dc3	0.093806766
9	0xbbd0e235	-0.006374622
10	0x3e180ba5	0.14848192
11	0xbcb4e8b6	-0.022083621
12	0xbce86673	-0.028369164
13	0x3e1914a1	0.14949276
14	0xbda326db	-0.079663955
15	0x3d586c56	0.052837692
16	0x3d084b33	0.03327484
17	0xbd3a7de1	-0.045530204
18	0x3dda170e	0.106489286
19	0x3be17e13	0.0068814843
20	0x3e039e2e	0.1285331
21	0xbdd60433	-0.1045002
22	0xbde1d33c	-0.11026618
23	0x3d61af8f	0.055099066
24	0xbe09adcd	-0.13445206
25	0x3e17f8e4	0.14841038
26	0xbd8c2fce	-0.068450555
27	0x3e855236	0.26039284
28	0x3ed56a19	0.4168251
29	0x3c2760d0	0.010215953
30	0xbe0fc8e3	-0.14041476
31	0x3d3deb86	0.04636719
32	0xbdf5a0e8	-0.11993581
33	0x3ecc8524	0.39945328
34	0xbe12ec4e	-0.14347956
35	0xbace7caf	-0.0015753711
36	0x3d853e41	0.065060146
37	0xbd1f3ef7	-0.038878407
38	0x3dd72bf8	0.10506433
39	0xbbf6a5ae	-0.007527075
40	0x3ea3dd8f	0.32004973
41	0x3e122d87	0.1427518
42	0x3c54e92e	0.0129950475
43	0x3e216a50	0.15763211
44	0xbd2b6d90	-0.041852534
45	0xbd8ad4ec	-0.06778893
46	0xbc2b440b	-0.010453234
47	0x3dd92360	0.1060245
48	0x3c8ee34c	0.017442368
49	0x3d17d424	0.037067547
50	0x3dbf0680	0.09327412
51	0xbd88801e	-0.066650614
52	0x3dcdab98	0.100424945
53	0x3e09a817	0.13443027
54	0x3debbf02	0.11511041
55	0xbdf1793c	-0.11790702
56	0x3dd1c0ea	0.102418736
57	0xbd23d4b8	-0.039997786
58	0xbca78b19	-0.02045207
59	0xbdb6aca8	-0.0891965
60	0x3e1d489c	0.1535973
61	0x3e8a41a9	0.2700322
62	0x3dbf3ff5	0.09338371
63	0xbe0750cf	-0.1321442
64	0x3cfe7679	0.031062352
65	0x3daac382	0.083380714
66	0x3e72ac24	0.23698479
67	0x3ca2d68c	0.019877695
68	0xbd14ba0b	-0.036310237
69	0x3e47e78f	0.19521926
70	0xbc850d9b	-0.01624184
71	0xbddade2c	-0.10686907
72	0x3c6402ec	0.013916712
73	0x3e9560eb	0.29175505
74	0xbd358d86	-0.04432442
75	0xbdb921f9	-0.09039683
76	0x3e11fcc1	0.14256574
77	0x3cf7f601	0.030268671
78	0x3e9f94da	0.31168252
79	0x3e219eaf	0.15783189
80	0xbc1a6471	-0.009423361
81	0xbd8a7dc4	-0.06762269
82	0x3ced95c6	0.029002082
83	0xbdba5ada	-0.0909936

fc3.weight f4 [10, 84]
0	0xbe8022e0	-0.25026608
1	0x3e056ae7	0.13029061
2	0x3ddea4e7	0.108712964
3	0x3dcd41a0	0.100222826
4	0x3ca73309	0.020410078
5	0x3e3a08b6	0.18167385
6	0x3d49b2c7	0.04924276
7	0x3dbafee9	0.091306515
8	0x3e0f5963	0.13998942
9	0x3d93d1e8	0.07217771
10	0xbdd28866	-0.10279922
11	0x3e297b42	0.16550925
12	0xbe01c9d4	-0.12674648
13	0xbe1d7598	-0.1537689
14	0xbae8c3e2	-0.0017758573
15	0x3e8c77a5	0.27435032
16	0x3e6f2c15	0.2335666
17	0xbcc1d3da	-0.023660589
18	0xbe14172e	-0.14461967
19	0xbd6934d5	-0.05693515
20	0x3cef6c1c	0.029226355
21	0x3c7f538b	0.015583883
22	0xbde9f6b9	-0.11424012
23	0x3d87e01c	0.06634542
24	0xbe029133	-0.12750702
25	0xbd359ad8	-0.044337124
26	0x3cfcad56	0.030844372
27	0xbe689b75	-0.22715552
28	0x3e66fe4e	0.22557947
29	0xbddd8abc	-0.10817477
30	0x3e62ae90	0.22136903
31	0xbdbfe522	-0.093698755
32	0xbd30e45f	-0.04318654
33	0xbe8138ea	-0.25238734
34	0x3c353061	0.011058898
35	0x3d35488e	0.044258647
36	0xbd16aa5e	-0.03678357
37	0xbe1bd6f3	-0.15218715
38	0xbdbb7c5a	-0.091545776
39	0x3e503b2d	0.20335074
40	0xbe8a045d	-0.26956454
41	0x3dc78cc8	0.09743649
42	0x3deac0fc	0.1146259
43	0xbd9f92ef	-0.07791697
44	0x3d9c65da	0.07636614
45	0x3db763a5	0.089545526
46	0x3e4dde09	0.20104231
47	0xbd6f6f53	-0.058455776
48	0xbc4d1d68	-0.012519218
49	0x3e443169	0.19159473
50	0xbe516a76	-0.20450768
51	0xbde17cad	-0.11010108
52	0x3c660556	0.014039358
53	0x3dc6c4ad	0.09705482
54	0xbd8e2d11	-0.069421895
55	0x3e72d7a8	0.23715079
56	0xbd904ba9	-0.07045681
57	0xbd7bce71	-0.061476175
58	0xbe002e42	-0.12517646
59	0x3c3febcd	0.011713934
60	0x3e94a3fb	0.29031357
61	0x3e640a58	0.22269571
62	0xbdd0eb9c	-0.10201189
63	0x3daa96f7	0.083295755
64	0x3d213936	0.0393612
65	0xbd3d7c72	-0.04626126
66	0xbe8fe54f	-0.28104636
67	0xbc64f5ae	-0.01397459
68	0x3c944732	0.018100355
69	0xbd8e243a	-0.069405034
70	0xbb89271a	-0.0041855695
71	0xbb6f41b0	-0.0036507659
72	0x3c9420b2	0.018081997
73	0x3e1481bb	0.14502613
74	0x3ca308ab	0.019901594
75	0xbd5f9877	-0.05458876
76	0xbd11e8a1	-0.035622243
77	0xbdbfefed	-0.09371934
78	0x3e20c817	0.15701328
79	0xbe264992	-0.16239002
80	0xbd9440ef	-0.072389476
81	0x3d4e486b	0.050362032
82	0xbbdcd976	-0.0067397906
83	0xbc6f6767	-0.014612055
84	0xbd2b0ed7	-0.0417622
85	0xbd1dbff8	-0.038513154
86	0xbe5ea965	-0.21744306
87	0xbdc861d2	-0.09784283
88	0x3dba6a24	0.09102276
89	0xbddeb19d	-0.10873721
90	0xbd7d9c5d	-0.061916698
91	0xbdba3a0f	-0.09093105
92	0xbe815279	-0.25258234
93	0x3d077dee	0.03307908
94	0xbcc3cfc0	-0.023902774
95	0x3e945a92	0.2897535
96	0x3d7382d5	0.059450943
97	0xbde7bc46	-0.11315207
98	0xbd1f8e28	-0.03895393
99	0xbdd4112a	-0.10354836
100	0xbe309bcc	-0.17246932
101	0x3dc49b15	0.09599892
102	0x3d909fe6	0.07061748
103	0x3e83c5fe	0.25736994
104	0x3cfac143	0.030609732
105	0x3cece00d	0.02891543
106	0xbccf9823	-0.0253411
107	0xbdf4b7d7	-0.11949127
108	0xbd04b610	-0.03240019
109	0xbdc23a1b	-0.09483739
110	0xbdbe0953	-0.09279122
111	0xbe9a1273	-0.300922
112	0xbe234ff4	-0.15948468
113	0x3e031b7f	0.12803458
114	0x3e17a752	0.14809921
115	0xbe2f0943	-0.17093377
116	0x3e573fe5	0.21020468
117	0xbda61dc7	-0.08111148
118	0x3eb7ba3c	0.35884273
119	0xbcd61003	-0.026130682
120	0x3bde03a1	0.006775335
121	0xbe01f2da	-0.12690297
122	0x3e749d1e	0.2388806
123	0x3e98c265	0.2983581
124	0xbe8cf401	-0.2752991
125	0xbe951dec	-0.2912439
126	0xbd24b594	-0.04021223
127	0xbd9c859e	-0.07642673
128	0xbdab029f	-0.08350109
129	0xbd248143	-0.040162336
130	0x3ea4d248	0.32191682
131	0xbe80fdb7	-0.2519357
132	0x3dd8ee55	0.10592333
133	0xbd14ccc0	-0.036328077
134	0x3da98cdf	0.08278822
135	0x3d76b54d	0.060231496
136	0xbd5aa8e1	-0.05338371
137	0xbd811629	-0.06303055
138	0x3d2ed6b4	0.042685226
139	0x3d81df4b	0.06341418
140	0xbc290d01	-0.010318042
141	0x3cc0b9fc	0.023526184
142	0x3d7d396a	0.061822332
143	0x3e1bd744	0.15218836
144	0x3e24f03b	0.16107266
145	0x3d47a98c	0.048745677
146	0x3e60e473	0.21962146
147	0x3e0a54bd	0.13508888
148	0x3e281273	0.16413288
149	0x3c2be8b4	0.0104924925
150	0xbe616263	-0.22010188
151	0xbce76247	-0.028245104
152	0x3da872c1	0.082250126
153	0xbe13f33a	-0.14448252
154	0x3c5396a4	0.0129143335
155	0x3d7817e4	0.06056966
156	0x3bc22457	0.005924742
157	0xbe680e54	-0.22661716
158	0xbdbe5f61	-0.09295536
159	0x3e294ff5	0.16534407
160	0xbdd72343	-0.105047725
161	0xbdd33213	-0.10312285
162	0xbd58994d	-0.052880574
163	0xbdd7eb9e	-0.10542987
164	0xbd645ffe	-0.055755608
165	0x3cd015ed	0.02540108
166	0x3c9c2c71	0.01906416
167	0xbdb55a2a	-0.08855088
168	0xbd6cab47	-0.05778053
169	0x3d86a6a5	0.06574754
170	0xbd84096e	-0.06447111
171	0xbce8c44c	-0.028413914
172	0x3d82a5bd	0.06379268
173	0x3e64bd15	0.22337754
174	0x3e16ec1e	0.14738509
175	0xbd141f48	-0.036162645
176	0x3ea805c4	0.328169
177	0x3c0a241d	0.008431462
178	0x3e9d39ac	0.30708063
179	0x3d629ea5	0.055327076
180	0xbd4df1cc	-0.050279424
181	0x3e16c716	0.14724383
182	0xbdc1287a	-0.094315484
183	0xbd6358fe	-0.05550479
184	0x3e678696	0.22609934
185	0xbe08b1d5	-0.13349088
186	0x3daa04fb	0.08301731
187	0x3a61f992	0.0008620258
188	0xbce56886	-0.028003942
189	0xbcc03def	-0.023467032
190	0x3de38880	0.1111002
191	0xbc73cbc8	-0.014880128
192	0x3d5981d4	0.05310233
193	0x3e25eba7	0.16203175
194	0xbd3ba8fe	-0.04581546
195	0xbe2be91c	-0.16788143
196	0xbd6a3206	-0.057176612
197	0xbd56f53c	-0.052479967
198	0xbe696922	-0.22794011
199	0x3d53c429	0.051700745
200	0xbc35b415	-0.011090298
201	0x3d29df81	0.041472916
202	0xbd13a7e3	-0.03604878
203	0x3de92876	0.113846704
204	0x3e6b3946	0.22971067
205	0xbd356f50	-0.04429561
206	0xbdcd233e	-0.100164875
207	0x3db7197d	0.089404084
208	0x3dfc312c	0.12314066
209	0x3e112cd8	0.14177263
210	0x3d925892	0.071458
211	0xbc981214	-0.018563308
212	0xbd1fbcb3	-0.038998317
213	0x3cf0d2d4	0.029397406
214	0xbddadca1	-0.10686613
215	0x3d9cc34b	0.07654437
216	0xbdc81980	-0.09770489
217	0xbbf02af4	-0.007329339
218	0x3df44212	0.119266644
219	0xbcdb3d4a	-0.026762623
220	0xbc8383d7	-0.016054077
221	0xbe11ada1	-0.1422639
222	0x3e552546	0.20815
223	0x3e803b77	0.25045368
224	0xbd2d2065	-0.042267222
225	0x3bce0c6d	0.0062881024
226	0x3c9be312	0.019029174
227	0xbe1b3574	-0.1515711
228	0xbd996c1d	-0.07491324
229	0x3c7901b7	0.015198163
230	0xbdb14073	-0.08654871
231	0xbe62c2f8	-0.22144687
232	0xbe13614a	-0.14392582
233	0xbd919451	-0.07108367
234	0x3ddc8b64	0.10768774
235	0x3caeb6d7	0.02132742
236	0xbd60ad07	-0.05485251
237	0x3bef893e	0.0073100617
238	0xbdbf62b1	-0.09344996
239	0x3d32479d	0.043525327
240	0x3dcf1f0c	0.101133436
241	0x3e8dde31	0.2770858
242	0xbba0f40f	-0.0049119066
243	0xbcfd8af0	-0.03095004
244	0x3d9c86a7	0.076428704
245	0x3de1b9f1	0.11021794
246	0x3dab074d	0.08351002
247	0x3e2ea542	0.17055228
248	0x3b3d994b	0.002893048
249	0x3d715e9c	0.058928117
250	0x3dae5fd7	0.08514374
251	0x3d15cd51	0.036572758
252	0xbc471016	-0.012149831
253	0x3dd2b0f4	0.102876574
254	0x3e38dd9a	0.18053284
255	0x3d9da989	0.07698352

fc3.bias f4 [10]
0	0x3d84a20a	0.06476219
1	0xbf22e471	-0.63629824
2	0x3dd7cd80	0.10537243
3	0x3ea28d60	0.31748486
4	0x3ee7123c	0.451311
5	0xbe3ba990	-0.18326402
6	0x3dcaad2d	0.09896312
7	0xbe938cf0	-0.28818464
8	0x3ef241c4	0.473158
9	0xbeb5eab9	-0.35530642
